result/diff_non_layer_weight.npy (npy, 147584 bytes, 1 tensors)

array f4 [3, 3, 64, 64]
000000 69 79 5e be 00 d0 55 be 25 d5 26 bd 87 ca 2d 3e
       -0.21726002 -0.20880127 -0.040730614 0.1697179
000010 62 3c 61 be b7 1c 5f 3e 6c 4a 5d 3d 74 f4 4e be
       -0.2199569 0.21788298 0.054026052 -0.20210439
000020 69 3f 93 be 0d 97 a7 3e d0 04 42 3e 44 97 6a 3e
       -0.28759316 0.3273243 0.18947148 0.22909266
000030 fb 9f a1 bd be 9e f4 3e f4 67 53 be 81 d3 f5 3e
       -0.07891842 0.4777736 -0.20645124 0.48012927
000040 06 1f cc be 06 d7 bc 3d be 28 1c 3e 8a be ae be
       -0.3986742 0.092207 0.15249917 -0.34129745
000050 89 f1 e4 be d3 96 ed 3a f7 13 33 be 63 6b 1f 3e
       -0.44715527 0.0018126614 -0.17488085 0.15568309
000060 ea f4 fc be 72 48 63 bd 9a f6 0b 3e 4f a6 bf bd
       -0.49405605 -0.05548901 0.1366829 -0.09357893
000070 34 a4 1d be f0 7b da 3d 6c f9 1d be 00 85 ab 3e
       -0.1539467 0.106681705 -0.15427178 0.33499908
000080 7a 57 d8 3c d7 14 fe bd 47 8e 34 be bd cc c1 3d
       0.0264089 -0.12406319 -0.176324 0.09462879
000090 79 db cb be 9f 34 0f 3d a2 3a d7 be 26 79 80 be
       -0.39815882 0.034962293 -0.4203692 -0.2509243
0000a0 e5 cb d1 3d 42 66 42 bc 1d 33 2c 3e 4c d1 0a 3e
       0.10243968 -0.0118652005 0.16816373 0.13556403
0000b0 40 3c 95 3d 2d 27 4c bd bf 05 7b 3e eb 15 44 3d
       0.072868824 -0.04984205 0.2451391 0.047872465
0000c0 84 9b 75 bd 90 1a df 3c ea a0 eb bd 87 cc 0c 3e
       -0.059962764 0.027234346 -0.11505301 0.13749896
0000d0 46 14 0a 3f e9 16 31 be 10 42 67 bf 5a b2 e2 3e
       0.53937185 -0.17293896 -0.9033518 0.44276696
0000e0 26 50 08 be 2a 7e 35 3e ac b1 9d bc d2 7d 89 3d
       -0.13311824 0.17723909 -0.01924976 0.067134514
0000f0 cd 85 52 3d ff f1 b8 3d dd 26 8a bd 3a c3 88 be
       0.051397134 0.09030532 -0.06745694 -0.26711446
000100 9e 4c a4 be 0a 45 ba be 0f cf 4b 3d 82 a5 3a 3e
       -0.32089704 -0.36380798 0.049758013 0.18227199
000110 d3 87 6b be d5 33 04 3f b8 66 3c bd 4b 21 1a be
       -0.23001032 0.5164159 -0.045996398 -0.15051763
000120 4e f8 47 be 5d 3f 46 3e 18 da 8c be 7b 4c c6 bd
       -0.19528314 0.19360109 -0.27510142 -0.09682556
000130 d6 b4 7e 3d 2d c1 a2 bd ee c7 96 3e f8 21 bd 3d
       0.062184177 -0.079470016 0.2944941 0.09234995
000140 60 cc ff 3d ed 6e 41 3d 5b 9b 6c 3e b5 3e e7 bd
       0.12490153 0.047224928 0.23106138 -0.11291257
000150 ab ef da bd 5f 01 a8 be bc f4 bd be b4 eb 48 bf
       -0.10690244 -0.32813546 -0.3710078 -0.78484654
000160 fe d6 80 3e 55 78 bb bd 2d 0b 66 3e fb 5c c1 3e
       0.25164026 -0.09153811 0.224652 0.3776625
000170 8e 93 d6 bd 66 e0 25 3d da 0f 0d 3f f3 fa 60 3e
       -0.104773626 0.040497206 0.5510231 0.2197073
000180 90 de ea be 4a ca f3 bd 5f a2 ee bd 38 36 84 bd
       -0.45872927 -0.11903818 -0.116520636 -0.06455654
000190 55 19 2b be f8 22 e3 bd a7 e0 00 3e a3 71 b5 be
       -0.16708882 -0.11090654 0.12585698 -0.3543826
0001a0 12 fb 79 bc 97 a6 bc be 20 b5 05 3d 37 ba 4e bc
       -0.015257614 -0.36845848 0.032643437 -0.012617639
0001b0 af a6 6c bb a7 56 56 3d 36 fe c6 bd d1 59 17 bd
       -0.0036110093 0.052328732 -0.09716456 -0.03695089
0001c0 73 68 de bd 9a 66 7d bd 97 58 e9 3c 6c 45 51 3d
       -0.10859766 -0.061865427 0.028484626 0.051091596
0001d0 bf ba 04 bf f6 a1 07 3e 6c c6 3a be f1 15 41 3e
       -0.5184745 0.13245377 -0.18239754 0.18856026
0001e0 d7 26 e3 3e 15 bf a8 3d 60 12 2f 3e 39 89 91 be
       0.4436557 0.08239571 0.17096853 -0.28425005
0001f0 8c 04 df bd 46 64 c7 be 47 10 b3 bb 5b df 3c be
       -0.10889539 -0.3894369 -0.005464587 -0.18444578
000200 e6 da e1 be 9e 4b 87 3e cc 5b 54 3d 6d 89 66 3e
       -0.4411232 0.2642488 0.051845357 0.22513361
000210 2a 1b b8 ba 5d 6c 30 3d 3f 4c 9c be 37 42 df be
       -0.0014046181 0.043072093 -0.3052692 -0.43605205
000220 b1 d7 f6 bc 75 92 49 3e 93 f3 75 be d7 85 c0 bd
       -0.030132147 0.19684775 -0.24018697 -0.09400528
000230 31 5c be bd 3a 21 f5 3a bd d4 26 3d 29 76 1e bf
       -0.09294928 0.0018701919 0.040730227 -0.6189905
000240 05 29 3a 3e ae 2e 03 bd 12 91 2f bf e6 19 84 3c
       0.1817971 -0.03202694 -0.68580735 0.01612563
000250 50 b2 2e be 3b ae 82 be c9 64 81 3e ac 80 7f 3d
       -0.17060208 -0.25523552 0.25272205 0.06237857
000260 9c ba c8 3d 24 63 3e be 5c 37 21 bf 38 a4 c4 be
       0.09801218 -0.18592507 -0.62975097 -0.3840654
000270 9b f8 c9 bd d2 0f e9 be 02 6c ae be 9a 8b 9a 3d
       -0.09861871 -0.45519882 -0.34066778 0.07546158
000280 9c 98 ab be 16 42 92 3d 2b 82 5f be af 5b a2 3e
       -0.3351487 0.07141511 -0.21826999 0.31710574
000290 b4 3e 11 bf 13 c6 64 3e ec 7d bb 3d ab ff 8b 3e
       -0.567363 0.22341184 0.09154877 0.27343497
0002a0 89 3e c8 be 34 b1 bb 3b b5 34 0b be 34 53 a9 3c
       -0.3911021 0.0057279114 -0.13594325 0.020669557
0002b0 dc 0a 03 be 0d a3 70 3e 46 44 65 bd 08 5f 2f be
       -0.12797111 0.23499699 -0.055973314 -0.17126095
0002c0 12 7f 1f be 5c fb e7 3c 00 7e 0d bf a7 c6 0a be
       -0.15575817 0.0283181 -0.55270386 -0.13552342
0002d0 34 09 7d 3d 42 cb bd bd 45 89 86 3e 01 bf 89 be
       0.061776355 -0.09267284 0.26276603 -0.26903537
0002e0 00 c8 ad be cb 29 e5 be de 19 70 3d 4b 8f 18 bf
       -0.3394165 -0.44758448 0.05861842 -0.5959365
0002f0 fe c1 10 3d df a4 58 3e 7e a8 7b bc 28 ec 8c 3c
       0.035341255 0.21156643 -0.015359996 0.017202452
000300 16 d4 9f be bf 16 0c 3e e7 c3 1d 3e 64 91 6e 3d
       -0.31216496 0.13680552 0.15406762 0.058244124
000310 91 b7 cf 3c 96 28 a0 be 0a c2 52 3d 12 99 e7 3d
       0.025356086 -0.31280965 0.05145458 0.11308493
000320 3a e2 91 bd 63 df 54 bd d7 e5 14 be f6 52 96 be
       -0.071232274 -0.05197085 -0.14540802 -0.2936017
000330 15 48 0a 3e f0 f5 3f be 87 f8 18 be a0 b5 e7 be
       0.1350406 -0.18746161 -0.14938556 -0.45255756
000340 65 fa 36 be c2 e1 ab bc 1f 6c 2d bb 2e a8 9f be
       -0.17868955 -0.020981673 -0.002646215 -0.31182998
000350 8d 6b de be df 29 36 3b f1 f9 b7 be 37 14 55 3d
       -0.4344143 0.0027795953 -0.35932878 0.05202123
000360 ed 94 ec bd 8b 03 89 be a3 10 c3 bd 27 ab 0d 3f
       -0.11551843 -0.26760516 -0.095246576 0.5533928
000370 6e 17 d8 3d 84 4d 80 bd 1f 53 ff bd bb 18 58 be
       0.10551344 -0.06264785 -0.12467026 -0.21103184
000380 88 16 a9 be 73 db 2b be eb 48 34 bc fe e0 0e bc
       -0.33025002 -0.16782932 -0.011003713 -0.0087206345
000390 76 b7 14 be db 37 ca 3c ef 10 02 3e f3 3d ee bc
       -0.1452311 0.024684837 0.12701772 -0.029082274
0003a0 69 9d a0 3d 69 3c 8b 3e aa 63 11 be 86 75 a3 bd
       0.078425236 0.27194527 -0.14198175 -0.079814
0003b0 f9 88 38 3e 16 8b 04 3f 80 f7 e5 3d bf 0d bc be
       0.18021001 0.5177473 0.112288475 -0.36729237
0003c0 e6 06 86 be 98 46 4c 3e c2 31 6b be e0 0f 8b bd
       -0.26177138 0.19948804 -0.229682 -0.06790137
0003d0 5d c7 a1 be c9 a2 18 3e f9 4c 60 bd a0 93 5b 3d
       -0.31597415 0.14905848 -0.054760907 0.053607583
0003e0 3c 65 13 be da 3e 0d 3d 3d ba 7c be 55 96 08 bd
       -0.14394087 0.034483768 -0.2468042 -0.033346493
0003f0 76 5e 0b 3e da 02 a1 3e 5f eb 33 3e 5d 69 fa bd
       0.13610253 0.31447488 0.17570256 -0.12227128
