result/direct_non_layer_weight.npy (npy, 147584 bytes, 1 tensors)

array f4 [3, 3, 64, 64]
0.18719985 0.058984954 0.3453701 -0.15634088 -0.2770318 0.18425494 0.13656357 -0.011630176
-0.11048248 -0.14397863 0.40293363 0.12176937 0.05700755 0.61259437 0.32136163 0.21750876
-0.12616472 0.086862355 -0.4662851 -0.32266682 0.1376894 -0.2442861 -0.7517188 0.040692564
-0.16060382 0.27824175 -0.027917154 -0.5963607 -0.5680862 -0.5003932 -0.14190674 -0.10157451
-0.13017882 -0.3022598 0.29822743 -0.07848117 0.20899203 0.03416205 -0.35341194 0.26028714
-0.47330675 -0.49005023 0.17189598 0.14075764 0.23371616 -0.08702604 -0.095959365 -0.2344867
0.24002649 -0.042726345 0.23886512 -0.20646343 0.12799063 -0.21769871 -0.47689918 -0.36280647
0.011625217 0.34600133 0.26944405 0.25804648 0.08148663 0.0067815566 -0.2580612 0.07514427
-0.06336699 0.24844058 0.049633633 0.44925818 0.34739214 0.16892786 -0.2975518 0.0061302385
-0.44021627 0.06311071 0.17325494 0.02588555 -0.062033024 -0.05975781 0.22775702 0.036145657
0.19004573 0.041983005 -0.042732075 -0.13240725 0.3383131 -0.17168522 -0.39513528 -0.38858086
0.3411524 -0.35830665 -0.58484775 -0.0024247179 0.02503046 -0.13575865 0.19305488 0.014027789
-0.15062788 -0.22240667 -0.24391565 -0.075514 -0.025003176 -0.060911864 0.065208785 -0.070998274
0.2769434 0.36119342 0.03186181 -0.015766382 0.21846385 -0.24556813 -0.071037546 -0.06685854
0.0962091 -0.122782245 -0.22042733 0.014929884 -0.031681247 -0.13049042 -0.08811094 0.13918293
0.27095053 0.20199506 0.11566886 -0.25787643 -0.052363787 -0.31324854 0.3759964 -0.038771205
-0.09533893 -0.0018399234 -0.08467432 -0.27773148 0.15641178 -0.22001281 -0.13130474 -0.37717268
0.1910447 -0.1643482 0.3879074 0.0205792 0.1829049 -0.31473663 0.029934086 -0.09361293
-0.45769235 -0.050057087 -0.67832416 -0.26905835 -0.20281066 0.6655966 -0.23177278 -0.0762145
-0.36779812 -0.06432704 -0.80785364 -0.46645406 -0.29693204 -0.018563908 -0.5029272 -0.7002153
-0.40013632 -0.05194703 0.056810763 0.25618973 0.013717172 0.4378558 -0.36135587 -0.07686219
-0.27034146 0.30830115 -0.12505329 0.022748515 -0.13891022 0.013825778 -0.057246733 -0.49110997
-0.25600466 0.14919405 -0.41519904 0.54569227 0.21251906 0.04694271 0.056215785 0.31395125
-0.7660581 -0.6461752 -0.16314588 -0.15755242 -0.23795946 0.1003047 -0.7173674 -0.0015084156
-0.118646555 0.01674604 -0.08298472 0.07916278 -0.114730924 -0.2624342 -0.052644134 -0.35814366
-0.07730429 0.09335193 -0.12284028 -0.09341806 0.1352983 -0.17794111 0.014406378 -0.27097845
0.18916358 -0.03934432 -0.30517894 -0.20435618 -0.056702882 0.1359419 0.10496396 -0.26288405
0.025897522 -0.14733814 -0.24755694 0.18030821 -0.10085799 -0.08591944 -0.061403863 -0.004070461
-0.3820087 -0.24931559 -0.0031801048 -0.24462128 -0.12345352 -0.1159179 0.055981558 0.003574119
0.26723936 -0.007190588 -0.13792293 -0.087429285 -0.53115815 0.42613265 0.015195712 0.113502145
-0.15479778 0.02973464 -0.24211474 0.115967155 -0.07937552 -0.19659269 0.17929205 0.25163257
-0.105702445 -0.27008313 -0.035305187 -0.10372007 0.0006003477 -0.20285514 0.050330967 -0.09640507
00000000: 51b1 3f3e 359a 713d 5ad4 b03e d317 20be
00000010: 1dd7 8dbe 54ad 3c3e 52d7 0b3e 7e8c 3ebc
00000020: a344 e2bd 226f 13be 514d ce3e 3862 f93d
00000030: c080 693d fcd2 1c3f 8389 a43e 9eba 5e3e
00000040: 5331 01be e4e4 b13d ecbc eebe 9634 a5be
00000050: 73fe 0c3e 2326 7abe a570 40bf 3fad 263d
00000060: 5475 24be b475 8e3e 84b2 e4bc 18ab 18bf
00000070: 196e 11bf c519 00bf 0050 11be 4c06 d0bd
00000080: 994d 05be ccc1 9abe 44b1 983e bcba a0bd
00000090: 0202 563e 81ed 0b3d 69f2 b4be 5b44 853e
000000a0: 4355 f2be dde7 fabe 8005 303e c522 103e
000000b0: 4a53 6f3e b53a b2bd 5886 c4bd 481d 70be
000000c0: 81c9 753e d201 2fbd 0f99 743e 266b 53be
000000d0: fa0f 033e 69ec 5ebe 212c f4be c5c1 b9be
000000e0: b277 3e3c 1627 b13e 92f4 893e ab1e 843e
000000f0: 76e2 a63d d237 de3b 9920 84be 3de5 993d
00000100: 8dc6 81bd 3567 7e3e a34c 4b3d 2b05 e63e
00000110: 62dd b13e 6dfb 2c3e b658 98be 2be0 c83b
00000120: 0764 e1be 3040 813d be69 313e ef0d d43c
00000130: 5716 7ebd 9bc4 74bd 2339 693e 780d 143d
00000140: 599b 423e 5ff6 2b3d d407 2fbd c495 07be
00000150: 6037 ad3e 40ce 2fbe 2c4f cabe 12f4 c6be
00000160: 87ab ae3e f873 b7be 95b8 15bf 04e8 1ebb
00000170: ae0c cd3c 5104 0bbe 2eb0 453e d0d4 653c
00000180: 323e 1abe 93be 63be 06c5 79be 16a7 9abd
00000190: 76d3 ccbc b87e 79bd 2f8c 853d 8b67 91bd
000001a0: 86cb 8d3e 58ee b83e 8781 023d 8028 81bc
000001b0: fdb4 5f3e 3676 7bbe 227c 91bd 21ed 88bd
000001c0: 4709 c53d 4275 fbbd b4b7 61be 799c 743c
000001d0: 32c4 01bd 489f 05be 8273 b4bd f885 0e3e
000001e0: 07ba 8a3e cbd7 4e3e cce3 ec3d 6108 84be
000001f0: 697b 56bd 1d62 a0be 9a82 c03e 8ece 1ebd
00000200: 0f41 c3bd 9629 f1ba bb69 adbd d232 8ebe
00000210: 692a 203e 0a4b 61be c074 06be c71c c1be
00000220: 39a1 433e e54a 28be cc9b c63e b695 a83c
00000230: 6c4b 3b3e 2925 a1be 5438 f53c 23b8 bfbd
00000240: a756 eabe a908 4dbd a7a6 2dbf 04c2 89be
00000250: 99ad 4fbe 8a64 2a3f d855 6dbe 5916 9cbd
00000260: 0950 bcbe e5bd 83bd 7fcf 4ebf 11d3 eebe
00000270: 7a07 98be 5613 98bc d6bf 00bf 4f41 33bf
00000280: abde ccbe 69c6 54bd 67b2 683d 4d2b 833e
00000290: fdbd 603c a32e e03e a303 b9be ed69 9dbd
000002a0: 326a 8abe a6d9 9d3e f80d 00be 185b ba3c
000002b0: 7b3e 0ebe 8485 623c 8d7b 6abd c472 fbbe
000002c0: 0b13 83be 53c6 183e f894 d4be 7db2 0b3f
000002d0: 999e 593e 0047 403d 8642 663d 38be a03e
000002e0: 621c 44bf bd6b 25bf b70f 27be 6c55 21be
000002f0: a5ab 73be 8d6c cd3d 64a5 37bf 07b6 c5ba
00000300: f7fc f2bd fe2e 893c e5f3 a9bd 1820 a23d
00000310: 0cf8 eabd c75d 86be 60a1 57bd 9b5e b7be
00000320: b651 9ebd 4c2f bf3d af93 fbbd f851 bfbd
00000330: a38b 0a3e 3236 36be bb08 6c3c b0bd 8abe
00000340: 19b4 413e 8227 21bd 6a40 9cbe bf42 51be
00000350: 4841 68bd 5a34 0b3e 58f7 d63d bd98 86be
00000360: 0a27 d43c cfdf 16be 917f 7dbe b7a2 383e
00000370: a28e cebd 88f6 afbd 9e82 7bbd 8061 85bb
00000380: a596 c3be 964c 7fbe 4e69 50bb 007e 7abe
00000390: 33d5 fcbd 5d66 edbd eb4c 653d c43b 6a3b
000003a0: 99d3 883e 069f ebbb ab3b 0dbe 200e b3bd
000003b0: fbf9 07bf 0f2e da3e 70f7 783c d073 e83d
000003c0: 4f83 1ebe 0f96 f33c edec 77be 3080 ed3d
000003d0: a28f a2bd 984f 49be 5698 373e fcd5 803e
000003e0: 867a d8bd 5648 8abe 2c9c 10bd 306b d4bd
000003f0: a760 1d3a 42b9 4fbe d827 4e3d 0570 c5bd
