result/direct_layer_weight.npy (npy, 147584 bytes, 1 tensors)

array f4 [3, 3, 64, 64]
0	0xbdb3833e	-0.08765267
1	0xbbf6b393	-0.007528731
2	0xbe2a1d7b	-0.16612808
3	0xbea44fdb	-0.32092175
4	0xbdcf28d5	-0.1011521
5	0xba0e9dcd	-0.0005440384
6	0xbe9421f4	-0.28932154
7	0xbd5e8960	-0.05433023
8	0x3d6add09	0.0573397
9	0x3d9fd949	0.07805116
10	0x3d3bba35	0.045831878
11	0xbdd37d5e	-0.10326646
12	0xbdad3982	-0.08458234
13	0xbea17e82	-0.3154183
14	0x3d91dab7	0.07121795
15	0xbd1b11f8	-0.037858933
16	0xbd65a470	-0.056065023
17	0xbd0ae2f3	-0.033907842
18	0xbe512914	-0.20425826
19	0x3d76dcb8	0.060269088
20	0x3c2c6d8c	0.010524165
21	0xbd5b3011	-0.053512637
22	0xbdf5d4e4	-0.12003496
23	0xbd5ab6a7	-0.053396847
24	0x3df218ea	0.11821158
25	0x3c84a53a	0.016192067
26	0xbc8037ad	-0.015651548
27	0x3cc56366	0.024095248
28	0x3cf54336	0.029939275
29	0xbe8ebf62	-0.27880388
30	0x3cee29e7	0.029072715
31	0xbdb454eb	-0.08805259
32	0x3d4ae054	0.049530342
33	0xbe7da7e2	-0.24771073
34	0xbe4faaa2	-0.20279935
35	0xbbd68edd	-0.0065477923
36	0xbd051d6a	-0.032498755
37	0x3dc7fa36	0.09764521
38	0xbcfb41c1	-0.030671002
39	0x3da5bd7d	0.08092783
40	0x3cedd9d1	0.029034527
41	0xbc9a7777	-0.018855793
42	0xbd89d6d4	-0.06730428
43	0x3c9f6569	0.019457536
44	0x3ce35807	0.027751936
45	0xbdab79b1	-0.0837282
46	0xbe954b1b	-0.29158863
47	0xbc93f5db	-0.018061569
48	0xbdeab1ba	-0.1145968
49	0xbc7da3ac	-0.015480917
50	0x3df60caa	0.12014134
51	0xbe054981	-0.13016321
52	0x3dc7d965	0.097582616
53	0x3eca40e8	0.39502645
54	0x3c8e78cb	0.017391583
55	0xbe9045fe	-0.281784
56	0x3c810f87	0.015754474
57	0x3cc80eb2	0.02442107
58	0xbda2b81e	-0.07945274
59	0xbe7c58a3	-0.24643187
60	0xbe99dace	-0.30049747
61	0xbd82a848	-0.06379753
62	0xbd9200d2	-0.07129063
63	0xbda2a40b	-0.07941445
64	0x3eb1618a	0.3464473
65	0xbd41cac0	-0.047312498
66	0xbe7027e3	-0.23452716
67	0xbfb8a146	-1.4424217
68	0xbf44e16a	-0.76906455
69	0xbac6b2f4	-0.0015159533
70	0xbf4d5761	-0.80211455
71	0xbda823db	-0.08209964
72	0x3b81d27e	0.00396186
73	0x3c2c06bd	0.010499653
74	0xbd385687	-0.045004394
75	0xbea7cebc	-0.32774913
76	0x3d364339	0.044497702
77	0x3e5e0129	0.2168013
78	0x3d710751	0.058844868
79	0xbdb34102	-0.08752634
80	0xbe57eef6	-0.2108725
81	0x3d0d3cc8	0.034481794
82	0xbf0c664c	-0.5484359
83	0x3d4b72b4	0.049669936
84	0x3c080f33	0.008304405
85	0xbd0dda88	-0.034632236
86	0xbf1ec8f8	-0.62025404
87	0x3d7ae225	0.061250824
88	0xbf62efae	-0.8864697
89	0x3d9bdab5	0.076100744
90	0x3ce63459	0.028101133
91	0x3d81497a	0.06312843
92	0xbef8a9ed	-0.48567143
93	0xbfb424ca	-1.4073727
94	0xbeaf685e	-0.34259313
95	0xbc41d2b9	-0.011830025
96	0xbd21e228	-0.03952232
97	0xbee92799	-0.45538023
98	0x3e3d8e34	0.18511277
99	0x3e8002dd	0.25002185
100	0x3c4299a9	0.011877456
101	0x3d22218d	0.039582778
102	0xbce68195	-0.028137961
103	0x3da6af8f	0.08138954
104	0x3f1cc404	0.61236596
105	0xbf2c6922	-0.6734792
106	0xbdb32906	-0.08748059
107	0xbb911e5f	-0.0044286693
108	0xbce2c898	-0.027683541
109	0xbf9c82ca	-1.2227414
110	0xbe3e26ff	-0.18569563
111	0x3cb19cd4	0.021681227
112	0x3e2b7a85	0.16745956
113	0x3cefdb6a	0.02927943
114	0xbfa7b72d	-1.3102776
115	0xbeccd1c1	-0.4000378
116	0xbf826d34	-1.0189576
117	0xbf2187a4	-0.63097596
118	0x3db9dfd9	0.09075899
119	0xbf2bea16	-0.6715406
120	0xbb083499	-0.0020783304
121	0x3cba802f	0.0227662
122	0xbd05a30e	-0.032626204
123	0x3f0bc511	0.54597574
124	0xbed2c2d6	-0.41164273
125	0xbe9ca914	-0.30597746
126	0xbd835071	-0.06411827
127	0xbf9e4d7f	-1.23674
128	0x3f8e0a7b	1.1096948
129	0x400cd2fd	2.2003777
130	0x3f592a86	0.8483051
131	0x3f74dac6	0.9564632
132	0x3fbf9cdb	1.4969743
133	0x401b7d0b	2.429507
134	0x40117c6d	2.2732193
135	0x40130d92	2.2977033
136	0x400f105f	2.2353742
137	0x401210c6	2.2822738
138	0x400d22b9	2.2052443
139	0x3fe3026a	1.7735112
140	0x400e0e8c	2.2196379
141	0x3fb6bc11	1.4276143
142	0x401d5c7c	2.4587698
143	0x3fec7401	1.8472902
144	0x40129d64	2.2908564
145	0x4014ca93	2.3248641
146	0x3fa1f576	1.2653034
147	0x401431b6	2.315534
148	0x401e913d	2.4776146
149	0x4015ddcc	2.3416624
150	0x40023393	2.0343978
151	0x40109248	2.2589283
152	0x3f2f6001	0.68505865
153	0x4006b3af	2.104717
154	0x40102c40	2.2527008
155	0x40197c60	2.3982162
156	0x3f456e73	0.7712166
157	0x3f7f1d69	0.9965425
158	0x3fef31eb	1.8687109
159	0x401518cb	2.3296382
160	0x4017d124	2.37214
161	0x3f52626f	0.8218145
162	0x3fb014d3	1.3756355
163	0x3ffe2b3d	1.9856945
164	0x4013a209	2.3067648
165	0x401378d9	2.304251
166	0x4016e138	2.3574963
167	0x40109d42	2.2595983
168	0x3f95d103	1.170441
169	0x3fe7a136	1.8096073
170	0x40184aac	2.3795576
171	0x40106dbe	2.2566981
172	0x4015beca	2.3397698
173	0x3f5b2ec5	0.8561824
174	0x3fbb88cb	1.4651121
175	0x400f13a2	2.2355733
176	0x3fda1eac	1.704061
177	0x40154dda	2.3328767
178	0x3f47ee70	0.780982
179	0x4003a55a	2.0569673
180	0x3f92fa6c	1.1482673
181	0x3f9965a1	1.198414
182	0x4013608f	2.3027685
183	0x3ff1f8b5	1.8904024
184	0x40174c94	2.364049
185	0x400d3600	2.206421
186	0x400f5f53	2.2401931
187	0x3fe2b383	1.7711033
188	0x3faa2b34	1.3294435
189	0x3f2b5306	0.6692356
190	0x40106830	2.256359
191	0x3fbf1192	1.4927237
192	0x400172ea	2.0226388
193	0x40059b1e	2.0875926
194	0x40048a73	2.0709503
195	0x3fe46b22	1.7845194
196	0x3ff91878	1.9460592
197	0x4001d661	2.0287097
198	0x4004ce99	2.0751097
199	0x40034711	2.0512125
200	0x4005e407	2.0920427
201	0x400c7de8	2.1951847
202	0x4008be67	2.1366212
203	0x4000c0b8	2.0117626
204	0x3ff6d9d4	1.9285226
205	0x3ff7896c	1.9338813
206	0x400490dd	2.0713418
207	0x3ffb97a8	1.9655657
208	0x40040daa	2.063334
209	0x4002e128	2.0449924
210	0x4000138e	2.0011935
211	0x400d401c	2.207038
212	0x40019bad	2.0251267
213	0x400aaf13	2.1669357
214	0x40061879	2.0952437
215	0x40004f3f	2.0048368
216	0x4009f01a	2.1552796
217	0x4001360b	2.0189235
218	0x40079985	2.118745
219	0x4004b59f	2.0735853
220	0x4000a201	2.009888
221	0x3ffc0fd1	1.9692327
222	0x4007e104	2.1231089
223	0x4002bdb0	2.0428276
224	0x400ea199	2.2286131
225	0x3fe80653	1.812693
226	0x3ff3b5e3	1.9039882
227	0x3ffe93e0	1.9888878
228	0x400aa5c2	2.166367
229	0x400aa449	2.1662772
230	0x400a4176	2.1602454
231	0x400472c6	2.0695052
232	0x4008983e	2.1342921
233	0x4007bddd	2.1209633
234	0x40023d16	2.0349784
235	0x4009f1e6	2.1553893
236	0x4008cd4e	2.1375308
237	0x3fe4d750	1.7878208
238	0x3fea8e1b	1.8324617
239	0x400354d9	2.0520537
240	0x3ff1361b	1.8844637
241	0x400252a6	2.0362945
242	0x40033b0d	2.0504792
243	0x40025f25	2.0370572
244	0x40031de6	2.0486999
245	0x401b4baf	2.4264944
246	0x40045dab	2.068217
247	0x3ff39cc3	1.9032215
248	0x400bcc93	2.1843612
249	0x40099826	2.1499114
250	0x3ff71833	1.930426
251	0x3feaafbf	1.8334883
252	0x3ff5a9e1	1.9192468
253	0x4006a6ce	2.103931
254	0x4000d171	2.0127833
255	0x3ff7c6dd	1.9357563
