result/non_layer_weight.npy (npy, 147584 bytes, 1 tensors)

array f4 [3, 3, 64, 64]
00000000: 99b3 cd3e 8d7e 7a3c ac94 b03d 6771 9abd
00000010: d79c 8fbd 06f8 57be 4fae 41be 5f62 353c
00000020: 5cc5 c13e b313 c0bd 7dfa 21be 39bb 0f3e
00000030: 0b12 67be 9609 39be 11f9 7c3e fa66 89bf
00000040: 59f0 ff3e 06f2 cd3d 1e1c d63e 42c7 98be
00000050: 76ae 8d3d 0a1a 89be cd4a e8be d38f 97be
00000060: c951 dcbe 75cf 35bd 6974 023d 3f0e 51be
00000070: b166 97be 5870 1b3e 0cd2 973e 676b 9f3d
00000080: b210 f03c 542f 10bf e7da a93d 9c2a 3cbe
00000090: 5972 f93d 974e d73d d466 43bf 49ab 913e
000000a0: d775 473f 02c8 43be 61dc 273e 96da 143e
000000b0: d723 8bbe 81d3 df3d cf4a b73e 2301 183e
000000c0: 4880 313e e544 283e f1a5 883e 9d77 ed3e
000000d0: 421e 303e 6452 c6be 4519 07bf 29b9 cc3b
000000e0: a145 b9be 5997 bcbc 7ab9 7dbe 2d75 7f3e
000000f0: 1b6d 893e 01d9 1b3e 5c7e b4be 33a6 6c3d
00000100: 04e1 bf3d 0bd5 14bf 1ebe 073d 5c05 8a3e
00000110: 4f11 283f 1051 5cbe d38a bdbe e95d e8bd
00000120: 9fc2 0bbf 344f 223d 6d53 32bf 61f0 60ba
00000130: f244 2c3c 91a6 0abd 5924 e2bb f379 a73e
00000140: 86c9 773e 6ec4 2b3d ab57 57bd 98f9 00be
00000150: d390 c5be 1d7c b7be 4755 6b3d 8036 26be
00000160: 609a debb 4e4e 0bbe 274c 59be 3e8f b33e
00000170: 1ab7 65bd f1e7 ff3d 5c9b 393e e40f d2bd
00000180: f486 543e 10a0 32be 03a4 99be d3b7 f03c
00000190: f503 26bc 79eb 90be 729e 123b ee2e bd3d
000001a0: a10f 683e 4cd7 983e 7010 023d cd2b 79bc
000001b0: 11e6 903d ab56 9c3e 8cbe a0be 902d f13d
000001c0: 2ee5 7bbe b4d3 7ebe 0b37 ff3e 6457 0e3e
000001d0: 9d0b 91bd 51b2 a93d fe63 423c 9f80 0a3e
000001e0: 5487 a43e ad83 fc3e 1e82 db3d 2164 af3d
000001f0: be47 69bd 2a60 673e c92b b73d e5e9 b1be
00000200: bf08 c9be 3a2d 813d 3c05 d3be 534d 263e
00000210: 4232 8d3e a8c0 f6be 7916 b1bd 1f29 29be
00000220: a36a bb3c 9878 523e a310 283e 1f2e 103d
00000230: 29dc 78bd 1552 5e3e a7ce 16bd bd4e fcbe
00000240: c5b2 a6bc 6937 ddbc 53b4 14bf a129 1e3e
00000250: 9995 e7be f985 9a3d 637d 2cbe 7928 1bbe
00000260: 60b3 e8bd b134 92be 227c eb3c 3189 b0be
00000270: bc5c 16bf 5a5c c0be 30ad 983d 566a 3bbe
00000280: ba2b 40bd 2024 a0be 8ca3 41be bc9c cbbe
00000290: f9c3 acbc 0623 3dbe ef06 1fbe 010c 3fbe
000002a0: f089 a2be 38ed 50be f686 07be 64f4 843c
000002b0: ff93 b5bd 9f4e 9e3e d3ea b03e eb51 8dbe
000002c0: dcea 6cbe 9ad7 803e 3d03 a1bc d096 4c3e
000002d0: 26d8 903c e7e5 a93e 0001 17be 1247 15bd
000002e0: 8e92 0b3e feab aabe 8d3e 13bf f21e 61be
000002f0: 99a9 97be 6042 c63e 56d6 abbe 177b 0aba
00000300: 19c7 92bb 68a6 773e 0bcc 5b3e e58d edbd
00000310: 19e8 ce3e acfb 34be c5fb f33d 9abd 52bd
00000320: 8398 993a 7f52 41be 8925 e3bc cc99 eebd
00000330: 1a4d 2dbd 6523 2ebd 18d5 003e 2785 003e
00000340: 6075 043d e4c6 8cbc a900 84be e665 8abe
00000350: 8349 bbbd ab60 463e 9f47 593d aef3 88be
00000360: 4e0e 26be 337d 12bd a8be b4bd 49f6 ddbc
00000370: 2d26 20bd 9c76 0e3d 8d53 4abe c15b a5be
00000380: 0561 45be 60c4 3e3e 1712 f3bc dfb3 9d3d
00000390: 46d4 04be ed04 983e d370 2b3e 6702 94bd
000003a0: 546f a83e ba66 553e 1394 07be f858 bcbd
000003b0: 5b4a 3abe 6597 7d3e d058 013e f0f9 623d
000003c0: d0c3 6fbe 20a3 57bb cc1a 403e a961 1dbe
000003d0: bf04 89bc 4924 66be dfd1 533d 3c78 01bc
000003e0: ea39 bbbc d85b e9bd 904c 003d 09ac 843d
000003f0: 2c4c 11be 43a6 2c3e c9a9 93bc 8f42 2c3d
0.40176085 0.015288961 0.08622107 -0.07541161 -0.07012337 -0.21090707 -0.1891415 0.011070817
0.37845886 -0.09378757 -0.1581821 0.14036264 -0.22565477 -0.18070063 0.24704386 -1.0734551
0.49988058 0.10055928 0.41818327 -0.29839522 0.069180414 -0.2677768 -0.45369568 -0.29601917
-0.43031147 -0.0443873 0.0318493 -0.2041559 -0.29570535 0.15179574 0.2965244 0.07784157
0.029304836 -0.56322217 0.082937054 -0.18375629 0.12180013 0.10513037 -0.7632878 0.28450993
0.77914184 -0.19119266 0.16392662 0.14536509 -0.2717578 0.10929013 0.35799262 0.14844184
0.17334092 0.16432531 0.26689103 0.4638032 0.17199042 -0.38734734 -0.52772933 0.0062476587
-0.36185935 -0.023021387 -0.24777785 0.24947043 0.26841053 0.15219499 -0.35252655 0.057775687
0.0936909 -0.5813758 0.033140294 0.26957214 0.6565141 -0.21515298 -0.37019977 -0.11346037
-0.54593843 0.039626315 -0.6965855 -0.0008580741 0.010514485 -0.033850256 -0.0069013056 0.32710227
0.24197969 0.041935377 -0.05257384 -0.12595212 -0.38587055 -0.35836878 0.057454374 -0.16231728
-0.0067933053 -0.1360409 -0.21220456 0.35070223 -0.056082822 0.12495411 0.18125671 -0.10256937
0.20754606 -0.17443871 -0.30007944 0.02938453 -0.010132779 -0.2830465 0.0022372273 0.09237467
0.22662212 0.29851758 0.031753957 -0.015208197 0.07075132 0.30534872 -0.31395376 0.117762685
-0.24599144 -0.24885446 0.49846682 0.13900524 -0.07082293 0.08285964 0.01186466 0.13525628
0.32134497 0.4931921 0.10718177 0.0856402 -0.056953184 0.22595277 0.08943898 -0.3474876
-0.39264485 0.063074544 -0.4121493 0.16240434 0.27577406 -0.4819386 -0.086468644 -0.16519593
0.022877997 0.20553815 0.16412596 0.035200235 -0.060756836 0.21711 -0.036818173 -0.49278823
-0.020348916 -0.02700396 -0.5808765 0.15445568 -0.4523132 0.075450845 -0.16844706 -0.15152158
-0.11362338 -0.28555825 0.028745715 -0.3447967 -0.5873525 -0.3757046 0.07454908 -0.18302283
-0.0469167 -0.3127756 -0.18910044 -0.39768016 -0.02108954 -0.18470392 -0.15529989 -0.18656923
-0.31745863 -0.20402992 -0.13235077 0.016229816 -0.08866119 0.30919358 0.34554157 -0.2760156
-0.23136467 0.2516449 -0.019654864 0.19979405 0.017681193 0.33183214 -0.14746475 -0.03644473
0.13630125 -0.33334345 -0.5751732 -0.21984461 -0.2962158 0.38722515 -0.33561963 -0.0005282624
-0.0044793007 0.24184573 0.21464555 -0.1159933 0.4041145 -0.1767413 0.119132556 -0.05145035
0.0011718426 -0.18879126 -0.02772786 -0.11650428 -0.042309858 -0.042514224 0.12581289 0.12550794
0.0323385 -0.017184682 -0.25781754 -0.27030867 -0.091448806 0.19372813 0.05304682 -0.26748413
-0.16216394 -0.03576393 -0.08825427 -0.027094977 -0.039098907 0.034781083 -0.19758435 -0.32296565
-0.19275291 0.18629599 -0.029671712 0.07700323 -0.12971601 0.29691258 0.16742258 -0.07227021
0.32897437 0.20839968 -0.1324008 -0.09196657 -0.18192427 0.24764784 0.12631536 0.05541414
-0.2341454 -0.0032903627 0.18760222 -0.15369286 -0.016725896 -0.22474779 0.05171382 -0.007902201
-0.022854764 -0.11394471 0.031323016 0.064781256 -0.14189214 0.16860299 -0.018025296 0.042055663
