result/random_layer_weight.npy (npy, 147584 bytes, 1 tensors)

array f4 [3, 3, 64, 64]
00000000: fb71 013e e791 0cbd 7f0d 4b3e b5d3 983e
00000010: b923 a73e 49a2 853e d574 3d3f 6024 663c
00000020: 060b cc3e 3b06 d93c 2469 613c 6f6e 8e3e
00000030: bdbf 993d bb5a ee3e 4a10 7e3e d51b aabd
00000040: 9e69 ac3f 0e59 c53e 48cc 6c3e 01e4 0ebc
00000050: fe92 cdbe 8581 ca3e 1295 173e 749c ed3e
00000060: 1714 063f 3661 183e f517 5e3f f24d 063e
00000070: 47d4 df3e a7ed d73e ea4e 003d cc24 113f
00000080: 6459 0e3f 0b72 833e a2d4 af3e 808e a83e
00000090: 4e70 4b3f 71ac 0b3f 6a18 523d 9138 3f3d
000000a0: ee6e 3f3f c31c 3f3f b82c 35bd 3753 d33e
000000b0: 442e 6d3f 6f4a cebd dd34 123f c33c b93e
000000c0: fd23 d63e bf7a aa3e d166 a43e ad73 c83e
000000d0: 4d8e 35be e21c b83e b5f0 ad3e 3b1e 193f
000000e0: 81e3 ac3e 8263 96be 8e12 d93e 953f 293f
000000f0: cc27 1b3f 4c6f 7e3b 2a5e af3e 9652 fa3d
00000100: 8416 89be 8e8d 97bd 00bb bcbe 30ab 55be
00000110: ba85 f7be ba1d 8fbe ef59 efbe e3de 26bf
00000120: 8610 b1be b037 02bf 0526 68be 2489 47be
00000130: c981 16bf b744 c9be 6a2e cabe 964b 09bf
00000140: 8739 69be 5d9b 89be 7330 f3be 7305 40be
00000150: 69bd c1be 004a 72be 3c55 30be a215 ffbd
00000160: 6b47 a0be 9a76 25bf 222e a8be ad3d a3bb
00000170: ecd4 29bf a3f3 aabe edb2 f4be 4b4a 34be
00000180: 0921 d8be 04b8 f9be f52c 05be 8646 5dbe
00000190: 433e 80be c4db 99bd 65ec f3be 1a90 60be
000001a0: fd68 b1bd 38f9 5bbe ad24 4dbe 56a5 fdbe
000001b0: cf1a 25bf b145 27bf a5bc afbe 04f0 ccbe
000001c0: ab2c 8dbe c4cf e5be dfc8 01bf e633 dfbe
000001d0: 239b e4be c219 d1be 156f 86be e1b0 d33b
000001e0: 9f2f 78be bca2 c6be 69ef b9be 6e1a 5fbe
000001f0: bff0 9dbe 9fa4 c2be 91e1 9abe 0827 d7be
00000200: d493 4b3f b116 113f 7fee b33e 1725 283f
00000210: ee80 53bd bd9c 9b3e cbb8 fd3e 3d28 223f
00000220: d0c5 943e 1137 c03e 561d 2a3f 2592 573f
00000230: 9ff6 2d3f 4a1b 043f f73d aebd 7742 e83e
00000240: 4355 133f d295 433f d480 233f 26b7 823e
00000250: 9d67 b13e 925b 463f 1995 123f 3fda cd3e
00000260: 413e 803f e5b3 553e 2a2f 333f d23e 023f
00000270: ac07 af3e 1b4c 3d3f e609 1a3f 6468 0d3f
00000280: bf08 0e3f 201e 1d3f dcdf 0f3f 31ec 483f
00000290: 57e3 6d3f 4edb 4a3f 41d6 3c3f 1f88 f33e
000002a0: 8333 e33e 84e5 7b3f 44a5 da3e 3897 373f
000002b0: b906 183f 6067 b83e 16c3 393f 53f5 403f
000002c0: 12fe 413f 7ca1 cf3e 85cc e43e 3148 063f
000002d0: ba10 773f fb3e 393f d37e 3e3f c98e 633f
000002e0: 929e 0e3f 32ad 043f e43d 493f 70cb fe3e
000002f0: 3cbd 5f3f 885c ed3e cb91 513f ccfd 0c3f
00000300: 69cb a7bd 6419 15be 9e45 abbe 08c7 9bbd
00000310: 1a20 29be d6f9 1e3d 90f5 d3be eb8e 75be
00000320: 2b73 79be d2b3 c6bd d1ae 16be 1c81 04bd
00000330: e9e2 a2be 404e 1ebe e0a3 c9bd de9a 6ebe
00000340: 4fd0 5ebd a39e 2ebe a655 5abe 51a5 9dbd
00000350: 81a1 1dbe 173d 59bc cd15 d9bd 3937 86bd
00000360: 260d dfbd c179 32be f7ec 86bd 28bb 04be
00000370: e820 eabd d294 3fbe 4e91 c0bc 9df1 8abd
00000380: 37c0 9ebe fd84 b9be 9dbe 17be ffbb dfbe
00000390: f11f 20be 81dd e7be e80c a4bd 0180 55bc
000003a0: fe57 00bd ff7c 42be 9e0f 853c c277 f9bd
000003b0: 7cc0 4ebe d9a8 bbbd 6528 52be f4ea 34be
000003c0: d71d 22be cb05 c1be e34b 8ebe f38a 3bbe
000003d0: 2ff3 31be 8833 c9bd c99a a4bd 51af d4bd
000003e0: e8c4 99be ede4 d2bd 84f0 6fbe 3342 bcbe
000003f0: 6ea1 9ebe 1b61 00be 8def 38bd 4491 74be
0.12641136 -0.03431883 0.19829367 0.2984902 0.32644442 0.26100376 0.74006397 0.014046758
0.3985216 0.026492229 0.013757978 0.2781863 0.07507274 0.46553597 0.24810901 -0.0830609
1.3469732 0.38544506 0.23124802 -0.008721353 -0.4015121 0.3955194 0.1480296 0.46408427
0.52374405 0.14880833 0.86755306 0.13115671 0.43716642 0.42173502 0.03132526 0.5669677
0.5560515 0.25672945 0.34341913 0.3292122 0.7946824 0.5456 0.051292814 0.046684805
0.7477864 0.7465326 -0.0442321 0.41274425 0.9264872 -0.10072791 0.5711191 0.3617917
0.41824332 0.33296773 0.32109693 0.39150754 -0.17730065 0.35959536 0.33972707 0.59811753
0.33767322 -0.29372793 0.4239697 0.66112643 0.606076 0.0038823662 0.3425153 0.12222783
-0.2677499 -0.07400046 -0.3686142 -0.20866084 -0.48344213 -0.27952367 -0.467483 -0.6518385
-0.3458292 -0.5086622 -0.22670753 -0.19485909 -0.58791786 -0.39310238 -0.39488536 -0.5363096
-0.22775851 -0.26876345 -0.474979 -0.18752079 -0.3783982 -0.23661041 -0.17220014 -0.12455298
-0.31304488 -0.64634097 -0.32847697 -0.0049817176 -0.6634052 -0.33389005 -0.4779276 -0.17606466
-0.42212704 -0.48773205 -0.13005431 -0.21608934 -0.25047502 -0.0751262 -0.47641292 -0.2192997
-0.08662603 -0.21481788 -0.20033522 -0.49540204 -0.6449403 -0.65340716 -0.34323612 -0.40026867
-0.2757314 -0.44885075 -0.5069713 -0.43594283 -0.4464961 -0.40839964 -0.26256624 0.0064602946
-0.24236916 -0.3879603 -0.36315468 -0.21787426 -0.30847737 -0.3801622 -0.3025022 -0.42021966
0.7952244 0.5667525 0.35142896 0.65681595 -0.05163663 0.3039302 0.49555048 0.6334265
0.2905717 0.37542012 0.66451013 0.84207374 0.6795444 0.5160414 -0.085079126 0.4536321
0.57551974 0.7640048 0.6386845 0.25530356 0.34649363 0.77483475 0.57258755 0.4020557
1.0018998 0.20869406 0.6999384 0.50877106 0.3418554 0.7394425 0.60171354 0.5523741
0.55482095 0.6137409 0.5620096 0.784854 0.9292502 0.7924088 0.73764426 0.4756479
0.44375238 0.9839709 0.42704213 0.71715117 0.5938526 0.3601637 0.725633 0.75374335
0.75778306 0.4055289 0.44687286 0.52453905 0.965099 0.72361726 0.7441227 0.8888975
0.5571071 0.51826775 0.7861006 0.49764585 0.87398124 0.46359658 0.8186309 0.55074763
-0.08193094 -0.14560467 -0.3345155 -0.076063216 -0.16516152 0.03881248 -0.41398287 -0.239803
-0.2436034 -0.09702267 -0.14715125 -0.03234969 -0.31813744 -0.15459538 -0.0984571 -0.23301265
-0.054397877 -0.17052703 -0.21321735 -0.07697547 -0.1539364 -0.013259194 -0.10599861 -0.06553502
-0.1089118 -0.17429258 -0.06588166 -0.1296202 -0.114320576 -0.18709114 -0.023506787 -0.06784365
-0.31006023 -0.36234275 -0.14818807 -0.43698117 -0.15637185 -0.45286182 -0.08010274 -0.013031007
-0.031333916 -0.18992995 0.016242798 -0.12181045 -0.20190614 -0.091630645 -0.20523222 -0.17667753
-0.15831695 -0.37699732 -0.27792272 -0.18314724 -0.17377923 -0.09824282 -0.080373354 -0.103850015
-0.3003304 -0.102975704 -0.23431593 -0.36769256 -0.30982536 -0.12537043 -0.04515033 -0.2388354
